tumor_seg_model.pt (torch, 109050 bytes, 65 tensors)

encoder.enc_layers.0.layers.0.0.weight f4 [10, 1, 3, 3]
00000000: f076 293e 8460 633d 36bf 84bd 1368 143e
00000010: 6e73 7b3d b82d 28be d94a 073d d378 16bd
00000020: 4fad 73be 5e71 79be 331b 01be 5415 9b3d
00000030: 5de1 dbbd 7079 723d 9428 583d da13 41bc
00000040: 174a 9b3d 9c53 3e3e 5597 c53b 37db e0bc
00000050: 3b5a 213c a76b 9bbc 7083 b6bc c1ac 8f3b
00000060: 75d7 b9bc 4393 ecba 53f1 c4bc cdb0 89bd
00000070: e10f e9bd 53ad d2bd 6ec8 9b3d 8983 4fbd
00000080: 6075 07be d170 4d3e b101 583e f113 59bd
00000090: 529d 97bc 0644 5abd aa6a cbbc 5c9d 2cbd
000000a0: 0d56 24bd 0608 61bd 7e29 d1bc f72c 10bd
000000b0: d1a7 ccbc 5afd cb3a 8734 363e 957f b63d
000000c0: 2b69 23be 4e7e 003e 28da c73d 1b1a 1ebe
000000d0: d107 0dbe 2dc8 d3bd 6359 c7bc 619a 4abd
000000e0: fd16 e5bc ef94 0bbd 4dd7 98bd 2d8f 06bc
000000f0: 8b3d f23c 64d0 bdbc 6274 3c3d 235b 853d
00000100: 8872 e83d 535f 0f3d 5781 c0bd e28b 89be
00000110: 9522 283d 6a09 07bc 7916 353d 907f dc3d
00000120: 2a90 0ebd 6893 673a 0849 8a3d 7c98 623c
00000130: 70e5 33bd 3731 ce3d 016d 093d 2aec b7bc
00000140: f7ae 9c3d 34a6 9dbd 3408 98bd b4db 8ebd
00000150: ee88 dcba 157d 933d 9d50 4a3d 87ef 12bd
00000160: 3f4e 043d 02b5 df3d
0.16549277 0.055511966 -0.06481783 0.14492826 0.06138938 -0.1642369 0.033030365 -0.03673632
-0.2379658 -0.24359652 -0.12608032 0.075724274 -0.10736344 0.059197843 0.052773073 -0.011784518
0.07582491 0.18586582 0.006030003 -0.02744828 0.009848173 -0.018972231 -0.022279471 0.0043846075
-0.022685746 -0.0018049259 -0.024040854 -0.06723175 -0.11379982 -0.10286965 0.07606588 -0.05066255
-0.13228369 0.20062567 0.21094395 -0.052997533 -0.018507633 -0.05328753 -0.024831135 -0.042142257
-0.040121127 -0.054939292 -0.02553248 -0.03519913 -0.024982365 0.0015563176 0.17793475 0.08911053
-0.15958087 0.12548181 0.09758407 -0.15439646 -0.13772513 -0.10340915 -0.024334615 -0.049463633
-0.027965063 -0.03407758 -0.0746294 -0.008212847 0.029570362 -0.023170657 0.04600943 0.065115236
0.1134997 0.035003018 -0.093996696 -0.26864535 0.041048605 -0.008241991 0.044210885 0.10766518
-0.034805454 0.0008833916 0.06752211 0.0138303 -0.04391998 0.10067981 0.03355122 -0.022451479
0.076505594 -0.07697716 -0.074234396 -0.06975499 -0.0016825476 0.07201592 0.049393285 -0.035872962
0.032301184 0.109231964

encoder.enc_layers.0.layers.0.0.bias f4 [10]
00000000: 007d 54bb aad3 dfbc 0afc 5b3c 666f fcbb
00000010: a09a 103c bf6a ca3c e771 2dbb 8110 8b3c
00000020: 77f7 5f3c a4b2 3bbc
-0.0032423139 -0.027322609 0.01342679 -0.0077037094 0.008825928 0.024709104 -0.0026465596 0.016975643
0.01366984 -0.011456165

encoder.enc_layers.0.layers.0.1.weight f4 [10]
00000000: fd95 223e fcda 213e 9fa3 af3d 1ee9 143e
00000010: 0e85 f03d 1dcc 1f3e 4662 c23d 5c98 733e
00000020: d1ab 973d 606c 2d3e
0.15877528 0.15806192 0.0857613 0.14542052 0.11744128 0.15605207 0.094914004 0.23788589
0.07405818 0.16935873

encoder.enc_layers.0.layers.0.1.bias f4 [10]
00000000: d3d2 323d 1658 1f3d 567c d8bc 3b4e 7a3d
00000010: 7759 c5bc 0afd 283d 9227 e23c 0823 9e3d
00000020: cbf6 5b3d e9af 78bd
0.04365809 0.038902365 -0.026426475 0.061109763 -0.024090512 0.04125694 0.02760676 0.077215254
0.053702157 -0.060714636

encoder.enc_layers.0.layers.0.1.running_mean f4 [10]
00000000: 9e96 6bbb b4ca e6bc 94e3 4a3c be1f 02bc
00000010: 6ff0 ad3b 8006 c63c 7e33 8fbb fec7 8b3c
00000020: e472 813c ccc9 3cbc
-0.003594793 -0.028172828 0.01238336 -0.007942138 0.005308203 0.024173021 -0.004370152 0.017063137
0.015801854 -0.0115227215

encoder.enc_layers.0.layers.0.1.running_var f4 [10]
00000000: 6c5b 9036 58ca 9736 ee98 5635 4b66 9036
00000010: d063 0f37 8e07 8f36 16fd 1d36 6bce 6b35
00000020: 0d17 5a36 2430 8635
4.3021773e-06 4.5237066e-06 7.9943754e-07 4.303443e-06 8.546704e-06 4.2626116e-06 2.3542138e-06 8.78447e-07
3.2497949e-06 9.997789e-07

encoder.enc_layers.0.layers.1.0.weight f4 [10, 10, 3, 3]
00000000: a5b2 19bd 71ab 83ba 943c 8cbc d4bf 48bd
00000010: 2424 42bc b867 0abc bee2 50bd aca0 9fbc
00000020: 14e6 c83a a9b2 0d3d 8266 5dbc d4db 6dbc
00000030: c6bd 983c a251 003c 5c99 3abc 3d2b a83c
00000040: 4c65 063c d6ee 633c bbb7 f3ba dc83 7ebb
00000050: 508b f4bb c537 0ebc 4d44 b0bb e50c 7bbc
00000060: 269d 8d3b c433 19bc 9b1a 5438 fd53 73bd
00000070: f0b8 843c 61f0 3fbd 93cd b6bd e533 eabc
00000080: 5326 133d ad53 5ebb aaed 49bd 0266 44bd
00000090: befa 53bc 9db6 39bc 8cd8 38bc f087 afba
000000a0: ded3 d4ba dc92 9cbc 2b5d 973b 4549 1ebc
000000b0: d1e5 96bb 1cd9 a13c 41c5 19bc 6cb5 0c3d
000000c0: b6bf 5f3d 027f c13a 9cc5 b0bc bd81 90bc
000000d0: 658d b63d 491d 653c 09d7 823b 35ea 62bc
000000e0: 7a00 49bc 89c9 893c fed2 10bb 0d8d a03a
000000f0: 43a3 153d bfec 983c 05f8 8a3c 0f8e 5e3c
00000100: 2ab9 b83b b8c2 8abc dd5e 3d3c 0353 12bd
00000110: efd5 c5bc 41c3 1b3d d0f2 d23c ae71 32bc
00000120: ae1a a1bc 3e4d ba3c c71a 123d b119 ceba
00000130: 3fb4 a2bc e4c8 bf3c b8cd b8bb bc09 1fbd
00000140: 51e0 bc3b a096 b4bc 7217 05bd 2221 1dbc
00000150: a766 1c3b 51ad e0bc 0d55 74bc d1b5 f33b
00000160: a46c a6bc 2e34 99bc d3e6 8b3c 9c3a 353d
00000170: 484c cb3c 3de9 2a3c 8b5a 44bc ddff de39
00000180: 72bc 90bb e3ce 13bc 25d9 833a 3ca8 513c
00000190: a662 c5bc a24e a33c 357a 43bd 16b1 cebd
000001a0: 0b31 d7bc 070f 50bd abb0 debc 6bf6 4a3d
000001b0: 8ff0 f1bb 8279 833b 5bde 61bc f1da aa3b
000001c0: 4d98 1f3c 430e 273b b89b 343c 302e ea3a
000001d0: b8e0 173c 81c6 6abc 8ead 0abc 8d4a 76bc
000001e0: ad23 f2bc ee70 72bd 2f28 1abd 9cf1 84bc
000001f0: 32a0 213c 29c8 12bc 9669 d4bc 6526 21bd
00000200: c2a4 23bd 4982 59bc 36e5 86bc e76d c7bc
00000210: 641c c33c e004 673c 85fb e93b 9c0e bf3c
00000220: 8c1f 403b 1629 a83c eabe 993c f66e a03b
00000230: 809b 293c 33e5 9d3c 4f09 81bc d392 813c
00000240: 5e03 07bd 81b5 e5bc 3887 21bc c4c3 4dbc
00000250: cba3 1cba 3572 2b3c 8eb7 f63c 31e5 1a3d
00000260: e3c7 a03c d456 6abc 3857 5bbd 6c05 8fbc
00000270: 9b98 52bd da4e 213d 8712 113d 8fdd 4f3d
00000280: 0317 483d e7a7 45bd 94d0 f7bc 312f a0bc
00000290: f550 a6bc c80f 50bd edea 213a 5d55 1cbd
000002a0: 1f2f 55bd 6eb6 0ebd e68d 2cbd e852 b93b
000002b0: ac3a 35bc f4ce fabb 3bfa f33b f262 163c
000002c0: 3f45 a93c f63f 013c e2d7 f13b d665 dd3c
000002d0: 6c99 b53b 37c2 2dbd ee4a 9ebb 1fc6 243c
000002e0: 3454 a2bc 5925 27bd 9fb5 643c c72d 8a3c
000002f0: ca36 c8bc 6d0b 1cbc 499f 6d3d 9a7a 883c
00000300: bc8b 15bd 6529 623c 266a dc3c 0b90 64bc
00000310: 74bb cabc d4a4 3d3d 2c93 cd3a c9cc 683c
00000320: 36f0 c7bb 6396 083c b0a7 d83b 05f4 d2bb
00000330: 2450 c83b 82db aebb f65a bfbb 8115 7d3d
00000340: 7de2 34bb e3aa 9fbc ad64 e03c cee9 19bc
00000350: 29f8 01bd 9739 e33c 322c 123d 4c48 92bc
00000360: aecb 1e3d bd21 b93c 38cc 6f3c a714 de3b
00000370: 254e 043b 4307 9f3a 1c74 ae3a 5ff5 88bc
00000380: 274b 7cbc d402 19bd 8b2c 363b bfbd 3a3d
00000390: 6e3f 5bbd e14c b9bc e9c2 933c 12a6 0e3d
000003a0: 18d3 d9bc 4df0 403d 0255 c83c 735d 063d
000003b0: 3473 883b 4cca 003c 7248 093d ee69 eeba
000003c0: 296e d93b bb18 853c cd82 793c 480f f7bc
000003d0: 8ff9 4b3c feb8 06bd 35ec 95bc 4938 cc3c
000003e0: 35ae 3d3c f488 96bc 2337 cb3b f340 003d
000003f0: ef19 eabb 4e01 a6bb 4890 c0bb 0653 e9bc
-0.037523884 -0.00100456 -0.01711873 -0.049011067 -0.011849437 -0.00844758 -0.05099749 -0.019485794
0.0015327358 0.03459421 -0.013513209 -0.014517743 0.018645179 0.007831963 -0.011389103 0.02052843
0.008202862 0.013911923 -0.0018594185 -0.0038835919 -0.0074628964 -0.008680289 -0.005379236 -0.0153228985
0.004321712 -0.009350721 5.0569517e-05 -0.05940627 0.016201466 -0.046860103 -0.08925929 -0.028589198
0.03592522 -0.0033924386 -0.04929892 -0.047948845 -0.0129382 -0.011335042 -0.011282098 -0.0013391953
-0.0016237458 -0.019112997 0.004619261 -0.0096610235 -0.004605033 0.019756846 -0.009385408 0.034352705
0.05462619 0.0014762583 -0.021578602 -0.017639989 0.089136876 0.013984033 0.0039929193 -0.013849785
-0.01226818 0.016819732 -0.0022098417 0.0012249068 0.03653265 0.018667577 0.016963968 0.013583674
0.0056373077 -0.016938552 0.011558262 -0.035723697 -0.024149863 0.038028006 0.025750548 -0.010891361
-0.019666042 0.02274191 0.035670068 -0.0015724209 -0.019861339 0.023411222 -0.005639758 -0.038827643
0.0057640453 -0.02204448 -0.032493062 -0.009590419 0.0023864897 -0.027426394 -0.014912856 0.0074374457
-0.020315476 -0.018701639 0.017077839 0.044245347 0.024816647 0.010431585 -0.011984478 0.00042533773
-0.0044169957 -0.009021494 0.0010059221 0.012796458 -0.02409489 0.019934956 -0.047723968 -0.1009237
-0.026268503 -0.05079558 -0.027183851 0.04955141 -0.007383413 0.0040122876 -0.013785924 0.005214088
0.009740901 0.0025490678 0.011023454 0.0017866548 0.009269886 -0.014329554 -0.00846423 -0.015032423
-0.029558027 -0.05918973 -0.03763598 -0.01622849 0.009864854 -0.008958855 -0.025929254 -0.039343257
-0.039952047 -0.013275691 -0.016466718 -0.024344398 0.023817249 0.014100283 0.007140579 0.023322396
0.0029315678 0.020527404 0.018767793 0.00489604 0.0103520155 0.01927433 -0.015751509 0.015817082
-0.032962196 -0.02804065 -0.009858899 -0.012558881 -0.0005975335 0.010464241 0.030116823 0.03781623
0.019626563 -0.014302928 -0.053549975 -0.01745864 -0.051415067 0.03938184 0.03541806 0.050748404
0.04885007 -0.048255827 -0.030250825 -0.019553753 -0.020302275 -0.0507963 0.0006176669 -0.038167346
-0.05204689 -0.034841947 -0.042127512 0.005655635 -0.011061352 -0.0076540653 0.0074456013 0.009178864
0.020662902 0.007888785 0.0073804716 0.027026098 0.005541971 -0.042421546 -0.0048307097 0.010057001
-0.019815542 -0.040807102 0.0139593175 0.016867531 -0.024440188 -0.0095242085 0.058013234 0.016660023
-0.036510214 0.013803815 0.026906084 -0.013950358 -0.024747588 0.04629977 0.001568412 0.014208981
-0.0061016334 0.008336636 0.006611787 -0.006437781 0.006113069 -0.005336226 -0.005839701 0.061788086
-0.0027600818 -0.019490665 0.027391756 -0.009394122 -0.031730805 0.027737422 0.03568668 -0.01785674
0.038768463 0.022599095 0.014636092 0.0067773643 0.002018818 0.0012132901 0.001330975 -0.016718565
-0.015398777 -0.037356213 0.0027797546 0.045591112 -0.05352729 -0.022619667 0.018037276 0.034826346
-0.026589915 0.04710417 0.024454597 0.032803964 0.004164124 0.007860731 0.033516355 -0.0018189528
0.0066354466 0.016247144 0.015228939 -0.030158654 0.012449636 -0.032891266 -0.018301109 0.024929183
0.011577179 -0.018375851 0.006201641 0.03131194 -0.007144205 -0.0050660735 -0.0058765747 -0.028481971

encoder.enc_layers.0.layers.1.0.bias f4 [10]
00000000: 8f70 4fba 5582 1c3b 3132 a83a 218c 993b
00000010: 3747 adbb f376 96b9 0a2d 8aba 86c3 6abb
00000020: 6619 2abb cfad d03a
-0.0007913196 0.0023881395 0.0012832341 0.004685894 -0.0052880305 -0.00028698854 -0.0010541987 -0.0035822107
-0.002595508 0.001592094

encoder.enc_layers.0.layers.1.1.weight f4 [10]
00000000: 0d9e e03d 2f69 293e 7614 e33d 2f17 dd3d
00000010: 7979 5b3d 97c2 083e ef13 8f3d 8866 c23d
00000020: 243a 433e b939 b03d
0.10967646 0.1654403 0.11087887 0.107954375 0.053582642 0.1335548 0.06986224 0.094922125
0.19065148 0.0860476

encoder.enc_layers.0.layers.1.1.bias f4 [10]
00000000: 0ba1 94bc af72 06bd 1398 f9bb 63e2 853d
00000010: ce6b 953b 4167 13ba 0116 613d 8240 d73c
00000020: 1828 4abd c1ca 603c
-0.018143198 -0.032824215 -0.0076170056 0.065373205 0.0045599705 -0.0005622991 0.054952625 0.026275877
-0.049354643 0.013720215

encoder.enc_layers.0.layers.1.1.running_mean f4 [10]
00000000: c18f 8bbc 2c8e e3bc cf4e bc3b bb56 e4bc
00000010: 6f30 87ba a6bb 2bb8 2250 d9b9 3caa 8cbc
00000020: 35d3 27bb 2cbb f43a
-0.01703632 -0.027777754 0.0057466994 -0.027873388 -0.0010314117 -4.094434e-05 -0.0004144917 -0.017171018
-0.0025608067 0.0018671504

encoder.enc_layers.0.layers.1.1.running_var f4 [10]
00000000: 044b ee39 6fe9 123a 5d96 a239 d1fc a639
00000010: 2b2f a639 5095 e439 3a5b 1f39 5bfe d039
00000020: 3ec7 c239 32bc 9839
0.00045450788 0.00056042423 0.00031011077 0.0003185035 0.0003169713 0.00043598795 0.00015197406 0.0003986236
0.0003715101 0.00029131916

encoder.enc_layers.2.layers.0.0.weight f4 [20, 10, 3, 3]
00000000: ec81 86bb 9e41 463c a058 bf3c af4f 67bb
00000010: f7a8 123d 5d68 513c 2ae8 c9bc d2a9 bebc
00000020: 7488 a4bc c0b7 ae3c 1cb3 ee3c a01c 013d
00000030: 61da a93c 4562 6a3c f451 eb3a 6bc5 01bd
00000040: f694 143c 4434 9bbc 467c 95bc 53e7 0dbd
00000050: 0390 7fbc ebec 22bd b778 37bd 8ebc 1cbc
00000060: 7f30 87bb e35d 10bd 4fea 58bd 66dd f8bc
00000070: 7fbc bebc 97df 1cbd 6539 b0bc 9ae3 fdbc
00000080: d541 9abc a0e1 c13c 4050 fb3c ab1b e13c
00000090: b6e7 903d 4547 e93c 5a9c 543c 73e9 c23c
000000a0: 64da 82bb a43a ccbb 449e 0cbd 6472 71bd
000000b0: b537 54bd d67f f3bc ad8a 80bc 3e59 bc3c
000000c0: 76ce 6a3c f7aa 083d 2617 1b3d b432 f4ba
000000d0: d9ce bb3c 55f2 0f3d 7f4a 983c 6692 be3c
000000e0: e109 3c3d 7ee7 4e3b 0383 61bc 1708 4cbc
000000f0: 9248 fabb ca1c fcbc 9b99 8fbd 502b 7f3d
00000100: 86c4 e73c befb cc3b e1be 2c3d 8789 de3c
00000110: e48f 233c ef34 84bc 0675 e0bc b5b2 d5bc
00000120: 414b 2c3c e518 55bc dc6c 15ba e5c1 7bbc
00000130: 7907 7abc 621d bdbc 26d5 b7bc e3b0 efbc
00000140: 35ae 5dbd de1a a2bd c8a7 b33b 891e 43bb
00000150: f1d3 7fbc 689e bfbc a492 22bd 7eb0 b8bc
00000160: 78ee b8bc 7641 15bd 16c5 cdbb f080 cd3a
00000170: 883c aebc e3e4 5ebc 2399 95bb bfbd a6bc
00000180: 4f20 133c ea47 0abc d449 9dbc e003 a0bb
00000190: c718 c63b c05d b43c abf1 15bc c96a fd3b
000001a0: ffb0 953c b980 8cbc 2087 c1bc fb9a cabc
000001b0: 9b23 f63b 24fb 2fbc 0cc1 a2bb 46a3 edbb
000001c0: b584 13bc af9b 87bb eec4 01bc 8036 37bb
000001d0: 91e9 8dbb a6d7 0abc fbbb 08bb 786b 59bc
000001e0: c71d faba 78cb 313b 40dc e93b 1959 923b
000001f0: 22af 8f3c e52c dc3c 37ee dabc bef4 57bc
00000200: 1400 adbb 3be1 f2bc e61f 21bc f215 483c
00000210: e294 c2bc 4749 46bc 4214 f53b 7358 f4bb
00000220: 9a4b 113c d378 613c d8b7 6cbc 2c11 32bc
00000230: 77b6 7fbc 8183 cfbc 6375 8fbc 9b16 d63b
00000240: 0b77 b1ba 7ff6 27bc a00b 6ebc 085c 0fbc
00000250: 47c8 a0bc 5795 f6bc 1037 bcbc bc76 d3bc
00000260: b49e 05bd bfe3 eabb 21c9 83bc 7995 003c
00000270: 0f69 34bc efae 7fbc 5732 80bb 3c07 55bc
00000280: 1752 01bc e01c 21bc aee6 66bc 0a05 453b
00000290: e8b5 713b 59b2 3cbc fb1c c43b 6dd8 adbb
000002a0: 7b7d cfba f410 d4bb 2576 593b e5df 19b9
000002b0: 784d 30bc cd06 29bc 6725 b7bb a9ca 4fbc
000002c0: 1659 94bc 8407 f4bb f87e 39bc 6b48 b439
000002d0: 0150 f53c a05d af3c 1809 03bd 70ca 193d
000002e0: 2a44 4e3d bae5 46bc b507 333c a3ed d43c
000002f0: a492 043d b962 9bbc 3af5 2abc 55e6 91bc
00000300: 17d7 2a3c d312 92bc 20b0 563c eb6e 4d3c
00000310: 4a6a 8c3c 81b3 013d dde9 d83c bb5c 5cbc
00000320: 5fa5 7b39 ffc7 c23c 01bd e939 f665 e6bc
00000330: 3289 34bd bc7b b0bb abe9 b0bc 22f2 55bb
00000340: 9baa 0c3c f0f2 c43c 8ae8 23bc c786 b2ba
00000350: 5d32 0dbc 1b1f c1bc 8a32 2cbd fcc8 d3bc
00000360: b78a 0bbd d61c 9bbc fee1 6cbc 5e11 61bb
00000370: 0b77 9e3b b843 903b 5a7d d7bc 9d85 5fbc
00000380: 7f75 07bc 098d ccbc af4d 65bc 80d9 af3c
00000390: 5f63 b3bc 09ef b9bb 6027 c73c d239 1fbb
000003a0: 1f08 1c3b c24e 8f3c 12e1 b3bb a3ff a5bc
000003b0: 050a 13bc b5f1 09bd 15e2 bebc 2bfa 44bc
000003c0: a234 58bc 6d3e 33bc 3b32 8e3b 4e41 8b3a
000003d0: 57fe 533c aafb da3c 0e2f a93b 3871 fc3b
000003e0: cff9 9a3c 980f b03c db1d 0fbb c541 423c
000003f0: a6bf 2f3a 4b2b 9e3a 85f2 c8bc 69ee 97bb
-0.0041048434 0.012100605 0.02335769 -0.0035295298 0.03580567 0.01278123 -0.024646837 -0.023274336
-0.020084597 0.021327853 0.02913814 0.03152144 0.020734014 0.014305656 0.0017953501 -0.031682413
0.009068718 -0.01894582 -0.018247735 -0.034644436 -0.0155983 -0.039776724 -0.044792857 -0.009566439
-0.004125654 -0.035245787 -0.05295783 -0.030379009 -0.023283241 -0.03829917 -0.021511743 -0.030992318
-0.01883022 0.023667157 0.030677915 0.027479013 0.07075445 0.028476367 0.01297673 0.023792958
-0.0039933193 -0.0062325764 -0.03433062 -0.058946982 -0.05181094 -0.029724043 -0.015691126 0.022991773
0.014331451 0.03336617 0.037863873 -0.0018630833 0.022925781 0.035143215 0.01859021 0.023263168
0.04590786 0.0031571086 -0.013764146 -0.012453101 -0.0076380456 -0.030775446 -0.0701172 0.062297165
0.028291952 0.006255596 0.042174224 0.027165188 0.009983037 -0.016138522 -0.027399551 -0.02608619
0.010515989 -0.013006424 -0.000570012 -0.015366052 -0.015260571 -0.0230853 -0.022440504 -0.02925915
-0.054121215 -0.07915281 0.0054826476 -0.002977284 -0.015614496 -0.023390964 -0.03969063 -0.022545096
-0.022574648 -0.03643938 -0.006279598 0.0015678685 -0.021269098 -0.0136043755 -0.0045653745 -0.02035415
0.008979871 -0.008439997 -0.019200243 -0.0048832744 0.006045434 0.02201736 -0.009151856 0.007733677
0.018272875 -0.017151223 -0.023624003 -0.024732104 0.0075115687 -0.010741029 -0.0049668606 -0.0072521297
-0.009003808 -0.004138432 -0.007920487 -0.0027956069 -0.004330822 -0.008474266 -0.0020863998 -0.013270251
-0.0019082361 0.0027129333 0.0071368515 0.0044661877 0.017539565 0.026876876 -0.026724918 -0.01318091
-0.0052795503 -0.029648414 -0.009834265 0.012212263 -0.023752633 -0.012102432 0.0074792216 -0.007456833
0.0088681225 0.013761717 -0.014448129 -0.010868352 -0.015607468 -0.02533126 -0.017512029 0.0065334565
-0.0013539506 -0.01025164 -0.014529139 -0.008749969 -0.01962675 -0.030100508 -0.022975475 -0.025813453
-0.032622054 -0.0071682627 -0.016087117 0.007848137 -0.011011376 -0.015605672 -0.003912251 -0.013002213
-0.007893107 -0.0098335445 -0.014093084 0.0030062818 0.0036882106 -0.011517131 0.0059849 -0.005305341
-0.0015830243 -0.0064717475 0.0033181992 -0.00014674624 -0.0107606575 -0.010316563 -0.0055891755 -0.012682595
-0.018108886 -0.007447185 -0.011321776 0.0003438623 0.029945375 0.021406949 -0.031991094 0.037546575
0.050357975 -0.012139732 0.0109271305 0.02599222 0.03236641 -0.018967973 -0.010434443 -0.017810026
0.010427258 -0.017831242 0.013103515 0.012538652 0.017140526 0.03166533 0.026478702 -0.013449843
0.00023998831 0.023777006 0.00044582042 -0.02812479 -0.044076152 -0.005385844 -0.021595797 -0.0032645543
0.008585597 0.024041623 -0.010004172 -0.0013620489 -0.008617965 -0.023574403 -0.042040385 -0.025852673
-0.034067836 -0.018934648 -0.014458178 -0.0034342627 0.0048359684 0.004402604 -0.02630489 -0.013642696
-0.008267759 -0.024969595 -0.013995572 0.021466017 -0.02189797 -0.005674247 0.024310768 -0.0024295938
0.0023808551 0.01749361 -0.005489477 -0.020263499 -0.008974557 -0.033677775 -0.023301164 -0.012022535
-0.013196142 -0.010940176 0.004339484 0.0010624321 0.012939057 0.02673133 0.00516308 0.0077039264
0.018917946 0.02149181 -0.0021837864 0.011856501 0.0006704278 0.0012067346 -0.024529705 -0.004636575

encoder.enc_layers.2.layers.0.0.bias f4 [20]
00000000: 5ec2 813b 5e34 c6bb a6b7 7bbb 0331 543b
00000010: 51e2 6abb 4caf 96bb 23da a1bb 4b13 8a3b
00000020: fc62 113c 74f9 633b 8df9 a7ba 6482 32bb
00000030: becd 983b 1fd4 65bb d05a 063a 82b6 41bb
00000040: d985 dd3b 4fd6 ff3a 6002 0c3c 940b 463a
0.003959938 -0.006048723 -0.0038409024 0.0032377846 -0.0035840461 -0.0045985337 -0.004939334 0.0042137257
0.008873697 0.0034786137 -0.0012815461 -0.0027238363 0.0046631983 -0.003506906 0.00051252265 -0.0029558246
0.0067603406 0.0019518825 0.008545488 0.0007554826

encoder.enc_layers.2.layers.0.1.weight f4 [20]
00000000: 4ba5 0c3e 57b4 923d 4a72 d73d bc5d 173e
00000010: 9a6a f03d 9ab7 e83d e5b2 1d3e 77a3 093e
00000020: 3a0e e63d fea8 093e e8a9 bf3d 8a34 d63d
00000030: 4f44 fe3d e498 a33d 8d14 e63d 6f23 d93d
00000040: 3539 ff3d d3c1 b43d fcca 0c3e 8103 da3d
0.1373493 0.07163303 0.10519846 0.1478185 0.11739083 0.11363144 0.15400274 0.13441263
0.11233182 0.13443372 0.09358579 0.1045924 0.124153726 0.07988146 0.112343885 0.106024615
0.12462083 0.088260315 0.13749307 0.106451996

encoder.enc_layers.2.layers.0.1.bias f4 [20]
00000000: d5ad 0abd 01fa 033c 0112 69bd 4217 83bd
00000010: 2d39 c5bc 63c3 16bd fb18 f1bb 50bf c0bb
00000020: 6913 0abc 0cfd 56bd c16e c9bc cefd 8a3c
00000030: 70fa 7dbc b57c 663c 37ea 98bc 52ce 0cbd
00000040: b3e1 32bd de66 0d3c 636a 113c e1ce bbbb
-0.033857185 0.008055211 -0.056901935 -0.064009205 -0.024075115 -0.03680743 -0.007357714 -0.005882181
-0.008427479 -0.052487418 -0.024588944 0.016966727 -0.0155016035 0.014067818 -0.01866637 -0.03437645
-0.043672275 0.0086304825 0.008875462 -0.005731449

encoder.enc_layers.2.layers.0.1.running_mean f4 [20]
00000000: 4fa9 cebc 5a0b 1ebd 735e a0bc c812 9ebc
00000010: 3544 a13a 57a7 ddbc 63b9 03bd a57a 33bc
00000020: 78b6 b23c 7259 1abc 9491 d8bb aece 61bc
00000030: 29ce e8bb 9c5a 2abc 216c 8dbb ecc5 8a3c
00000040: ca54 d1bb 5ca6 89bc a0bc 59bc f73c d9bb
-0.025227217 -0.038585044 -0.019576287 -0.019296065 0.0012303652 -0.027057333 -0.03215922 -0.010954534
0.021815524 -0.0094207395 -0.006609151 -0.013782186 -0.0071046543 -0.0103975795 -0.0043158685 0.01694008
-0.0063882815 -0.01680296 -0.013289601 -0.006629582

encoder.enc_layers.2.layers.0.1.running_var f4 [20]
00000000: 1532 773a fba4 243a 4ffa c339 dd6c 483a
00000010: daed bf39 1647 f439 a1a3 863a 94e1 223a
00000020: c110 a039 da15 2a3a e456 b939 0485 3d3a
00000030: 7c1c c739 cf6a b039 7d57 b739 bea3 0f3a
00000040: 880e 1e3a 1d42 033a 48ae 5c3a f92b de39
0.0009429765 0.00062806875 0.00037379793 0.00076456164 0.00036607572 0.0004659227 0.0010272154 0.00062134233
0.0003053006 0.00064882415 0.00035350688 0.00072295987 0.0003797746 0.00033648915 0.00034969664 0.00054794166
0.0006029387 0.0005007105 0.0008418304 0.00042375902

encoder.enc_layers.2.layers.1.0.weight f4 [20, 20, 3, 3]
00000000: 7958 963c 18bd b03b 8516 d538 6edd 663b
00000010: ed92 973c 51ce 12bb ec8d be3b 2e04 4ebb
00000020: 6c3a 2bbc 9585 de3b dcec 3b3b d5fb 653c
00000030: 6a58 163b 1986 0f3c a06c 953c 0957 d73a
00000040: ae77 ef3b 9988 033d cbc3 653b 7c78 533c
00000050: 2402 8d3b 54f0 7f3a fe7d 0cba 8f4d a2ba
00000060: 183a ec3c 768a 61bc 44d6 6f3c 2b8d 32bc
00000070: f134 dcbb a9d9 893c 4a2d 773c fc49 663b
00000080: 1ced c43c b21c cebb fa17 42bc 9d57 eb3c
00000090: d9c8 3cbc de48 8dbc 1211 f3bc ca01 19bb
000000a0: d203 bf3b 150f 37bc 9936 24bd 0f20 08bd
000000b0: 23d5 8fbc fe89 98bc d3dc 223c 2095 833c
000000c0: aee2 bbbc 035c 9d3c dab4 4f3c f109 ecbc
000000d0: 6466 063c c365 d239 bb61 40bd a211 00bc
000000e0: 6171 123c 3af4 e3bc 3be2 113c cef4 563d
000000f0: 2c9c e0bc 2b32 0d3c 82ca 023d 2f5a 6abc
00000100: f047 bc3c aeeb cb3c e690 fbbc 3f9b 46bc
00000110: a09a 3f3b 0fb4 91bc c3b4 e63b 1c4c 21bc
00000120: 1342 a23c 85ba 86bb 0a75 15bd 075e 33bc
00000130: 2b5a e8b9 39e0 093b e9ee 20bc 233e 193c
00000140: fde6 86bb c50c 66bc 5eb8 c43b db99 b8bb
00000150: 070c 863c 6aa1 25bb 0b31 3bbc 3acb ec3c
00000160: a6a3 4f3c 40de 543c f8dd 18bd 18d0 1e3c
00000170: 6fc5 333c 50d6 01bc 5d6e 0abc 1787 9ebc
00000180: f1c8 03bd bb52 09bd 5d6d 92bc 9510 82bd
00000190: ee9f 26bd 14f6 0c3d e952 48bd f8f9 42bb
000001a0: 4d51 973c 0d4b 44bc 76e2 ee3c 7e35 703c
000001b0: a8c9 4b3d 65da 73bb f51d d43b 055c 943c
000001c0: 7e6f 9abc e690 0ebc 7d9c 91ba 17aa 35bb
000001d0: a3ac 90bc 9639 f1bc 2b4d daba af5b 9abb
000001e0: 2294 2cbd 4f6f e03b 3a9a 903c 2828 2abd
000001f0: 919e 94bb e0d9 b23c 06e7 7c3c e7ec 993c
00000200: 95b5 84bc e654 2f3c 5188 9c3a 27aa f2bc
00000210: 9a2a a13c 3591 a13c 2418 a4bc 0262 1fbc
00000220: 8e84 b73c 112b a63c 9e7f c43b 3855 e13c
00000230: a072 fb3a 0446 083c 1147 5a3c bbd9 a23b
00000240: f645 fd3b 5feb 903b d427 ecbc adc7 b23c
00000250: 2e07 733c 3e92 453c c20f e537 3dbf a03c
00000260: 2608 f53c eb13 54bc 4b67 043c d856 9e3c
00000270: 3bb1 263b 3d31 ee3b cf2c ccbb 8683 ce3b
00000280: 85c3 283c ac6f e3bc 5187 a0ba 2a43 333d
00000290: d3b7 343d 4472 0dbd ce78 30ba 2e5a 0f3c
000002a0: 8d75 21bd 36c8 e2bc e97f 963c 62a9 983c
000002b0: c4c9 5ebc d9b2 61bc d774 78bc a123 223c
000002c0: 41ff 413c 50b1 0bbd 3f78 d6bb 76c4 bf3a
000002d0: 4381 85bd 9b39 0abd 7b26 3bbd 4496 24bd
000002e0: b8a6 df3b a1d1 f33c 4ffd 1d3c 8920 3c3d
000002f0: c20c 903d 0339 5c3b 7dfd ab3b c960 6cbc
00000300: 7f10 da3a e5b1 dcb8 bab6 b8bb 7a07 5d3c
00000310: 8816 9d3c 9a37 4a3c 7d4d 9ebc b124 14bc
00000320: 678b a3bc d152 72bc 6efe 813c 63fa 41bc
00000330: cb55 f03b 655a 8ebc f2ee 8cbc 6042 92bc
00000340: f058 59bd 2a8a e8bc 10ae 19bd bc54 f0bc
00000350: 5222 1c3d 06d9 edbb 936f 103c fac5 6a3d
00000360: c675 83bc 2951 aabc a7e2 553b f180 8d3b
00000370: 36ef 7a3c 53b9 633b e9bc 7fbc 99c3 be3b
00000380: b5a0 dfbc cd59 3d3c 7a25 0dbc 4a89 a2bc
00000390: 2731 4d3c b629 2abc abbb 9abc e564 9e3b
000003a0: 1c56 213c a84f 793b d72a 6e3d f40d ccbc
000003b0: 2cda 78bd 69a3 77bc 0d82 e5bc 1e53 49bd
000003c0: 1089 f9bc c961 baba 025b e7bc 8854 a7bc
000003d0: d7c7 92ba ba37 9f3c 12bb 3c3c 35c7 ca3c
000003e0: 4f76 273c 367b 88bc 9bd1 163d c4ad 01ba
000003f0: 0581 d23c 4431 46bc ee5c 283d a281 c23c
0.018352734 0.0053936355 0.00010160826 0.0035227197 0.018502677 -0.0022400806 0.0058152582 -0.0031435597
-0.010450941 0.0067908266 0.0028675115 0.014037092 0.0022940882 0.008759999 0.018240273 0.0016429137
0.007307968 0.03211269 0.0035059329 0.012907144 0.0043032337 0.00097632897 -0.00053593505 -0.0012382733
0.028836295 -0.013765922 0.014638487 -0.010897915 -0.0067201783 0.016827421 0.015086481 0.0035139313
0.024038844 -0.006290042 -0.011846537 0.0287283 -0.011522495 -0.01724666 -0.029671226 -0.0023347014
0.005829313 -0.011173029 -0.04009113 -0.0332337 -0.017557686 -0.018620487 0.009940344 0.01606232
-0.022935238 0.019208914 0.012677396 -0.028813334 0.008203123 0.0004013014 -0.046968203 -0.007816704
0.008938164 -0.027826417 0.008904035 0.052479558 -0.027418219 0.008617918 0.031931408 -0.014303728
0.022983521 0.024892654 -0.030708741 -0.0121219745 0.002923645 -0.017786054 0.0070405914 -0.009844806
0.019806897 -0.0041115903 -0.03648857 -0.010947711 -0.0004431767 0.0021038188 -0.009822586 0.009353193
-0.0041168914 -0.01404113 0.0060034236 -0.0056335754 0.016363157 -0.0025273212 -0.011425267 0.0289055
0.012673294 0.012992442 -0.03732106 0.009693168 0.010972365 -0.007924631 -0.008449164 -0.019351525
-0.032174055 -0.033526164 -0.017874414 -0.06350819 -0.040679865 0.034414366 -0.048907194 -0.0029751044
0.018471384 -0.011980784 0.02916072 0.014661191 0.04975286 -0.003720903 0.0064732977 0.018110285
-0.018851992 -0.008701539 -0.0011109259 -0.002771979 -0.017660445 -0.029446404 -0.0016655078 -0.0047106366
-0.042133458 0.0068492065 0.017651666 -0.041542202 -0.004535504 0.021832407 0.01543594 0.018789722
-0.016199866 0.010701394 0.0011942481 -0.02962215 0.019673634 0.01972256 -0.020031042 -0.009727957
0.022402074 0.020284208 0.0059966585 0.027506456 0.0019183941 0.008317474 0.013322608 0.004969803
0.0077292873 0.0044225897 -0.028827585 0.021823728 0.014833255 0.012058793 2.7306265e-05 0.01962244
0.029911112 -0.012944202 0.008081268 0.01932852 0.0025435227 0.0072690533 -0.0062309275 0.0063023
0.010300522 -0.02776321 -0.0012247359 0.043765225 0.04412062 -0.0345328 -0.00067318685 0.008749528
-0.039418746 -0.027683359 0.01837154 0.018635456 -0.013597909 -0.013775551 -0.015164576 0.00989619
0.011840642 -0.034104645 -0.006545096 0.0014630693 -0.06518795 -0.033746343 -0.045690995 -0.040182367
0.0068252943 0.029763045 0.009642913 0.045929465 0.07033683 0.0033603318 0.005248724 -0.014427372
0.0016636996 -0.00010523553 -0.005637017 0.013490552 0.019175783 0.012342358 -0.019324059 -0.009041951
-0.019963933 -0.014790253 0.015868392 -0.011839482 0.007334446 -0.017377088 -0.017203782 -0.017853916
-0.053063333 -0.028386194 -0.037519515 -0.02933728 0.038118668 -0.007258537 0.008815664 0.05731771
-0.01604737 -0.020790653 0.0032636316 0.0043183495 0.015315821 0.0034747913 -0.015609005 0.005821657
-0.02729831 0.011557055 -0.008614892 -0.019840855 0.012523926 -0.010385921 -0.018888315 0.004833805
0.00984719 0.0038041864 0.058146324 -0.024908997 -0.06075494 -0.015114644 -0.028016115 -0.049151532
-0.030460864 -0.0014219816 -0.028241638 -0.02042605 -0.0011198473 0.019435752 0.01151921 0.024753192
0.010221078 -0.016660314 0.03682099 -0.00049468526 0.025696287 -0.012096707 0.04110425 0.023743454

encoder.enc_layers.2.layers.1.0.bias f4 [20]
00000000: 3669 8c3b 3623 5dbb 9136 2abb 7c61 09bb
00000010: 7f60 643b 5a5b 0c39 124e b53b ec4b 043b
00000020: e8ef 643b 43a9 0a3b f1c2 c43b bdec c0bb
00000030: 8477 71bb ee77 0f39 3454 7b3b af5a b335
00000040: 3996 92bb 5e46 cf3a ca89 8cbb 31f8 86bb
0.004285003 -0.0033742911 -0.0025972466 -0.0020962646 0.0034847555 0.00013385472 0.0055329883 0.0020186855
0.0034933034 0.0021158017 0.006004684 -0.0058875964 -0.0036844919 0.0001368222 0.003834975 1.3362932e-06
-0.0044734743 0.0015813818 -0.0042888867 -0.004118942

encoder.enc_layers.2.layers.1.1.weight f4 [20]
00000000: 2c21 ba3d 797d be3d 8758 d43d 4387 b33d
00000010: 11f0 d53d 12b8 033e 1201 ad3d 819e c33d
00000020: 56c4 333d 4a03 c43d df91 e53d 29b1 d33d
00000030: b99f bb3d aec2 d93d 4597 b53d a502 ae3d
00000040: 2050 7a3d fc06 ce3d 2699 9a3d bcb0 963d
0.09088358 0.09301276 0.10368448 0.087660335 0.1044618 0.12863186 0.0844747 0.095517166
0.043888412 0.0957094 0.11209463 0.10336525 0.09161324 0.10632835 0.08866743 0.08496598
0.06111157 0.10059926 0.07548742 0.07357928

encoder.enc_layers.2.layers.1.1.bias f4 [20]
00000000: 9055 8cbd 2e61 24bd 18b9 09bd 2492 edbc
00000010: ecc0 4ebb c88e 3cbd ed8f febc 2b1d 5bbd
00000020: 5396 103c 8235 70bd 7905 eebc f4c1 28bd
00000030: 1e8f f7bc 5a2e b2bc 9a49 ffbc 6fd0 46bc
00000040: df8e bebc 4912 a3bc c055 b0bc 8912 dabc
-0.06852257 -0.04013174 -0.033623785 -0.02900035 -0.0031548096 -0.046034604 -0.031074489 -0.053494614
0.008824903 -0.05864478 -0.029055344 -0.041200593 -0.03021961 -0.021750618 -0.031163026 -0.012134655
-0.023261486 -0.01990618 -0.021525264 -0.026620166

encoder.enc_layers.2.layers.1.1.running_mean f4 [20]
00000000: 5558 a3ba 985e 82bc 49dc e7bb d7c3 ebba
00000010: 062c 72bc 7100 09bc bf22 a93c 3dc0 d2bb
00000020: 1f0c bc3b 0344 11bc d5f4 06bc 6dc8 b0bc
00000030: ffdf fabc 278f b4bb 0508 a03c beec eaba
00000040: 6d03 023b dda3 02bb 1aa0 9bbc 8383 0dbc
-0.0012462238 -0.015914246 -0.0070758206 -0.0017987442 -0.014781004 -0.008361922 0.020646451 -0.006431608
0.0057387496 -0.008866313 -0.008237083 -0.021579945 -0.030624388 -0.005510229 0.019535074 -0.0017923338
0.0019838468 -0.0019934096 -0.01899724 -0.008637312

encoder.enc_layers.2.layers.1.1.running_var f4 [20]
00000000: 6d26 9939 6ca2 de39 f4a4 ad39 0536 073a
00000010: d81a 103a e6df 043a 489d aa39 cc22 9139
00000020: ff67 3e39 e621 053a 8250 9c39 a00d 9839
00000030: 05cd 0e3a 0502 c239 4278 8039 20c4 3b3a
00000040: 90db 8e39 228c 313a ccdb 8b39 c528 6239
0.00029211064 0.00042464153 0.0003312003 0.0005157891 0.0005497164 0.0005068764 0.0003254211 0.0002768248
0.00018158554 0.00050785986 0.00029814622 0.0002900185 0.00054474204 0.00037004068 0.00024503662 0.0007162709
0.00027247937 0.00067728956 0.00026675907 0.00021568227

encoder.enc_layers.4.layers.0.0.weight f4 [20, 20, 1, 1]
00000000: 0f95 64ba 6807 743d a054 803c 29dc 7cbc
00000010: 9df0 b4bc 70b2 023b bd5d d037 232c 063b
00000020: 5b7b 68bc 8aa3 ad3c bc8e 233c 0202 5b3d
00000030: 2509 583c 370a 6abc 80f0 a0bb cd77 223d
00000040: 4525 92bb 3ed9 26bd 260b 493d 080e 30bc
00000050: d33b 89bb a222 883d e3b2 2abb 7d1b c2bc
00000060: 92a0 a3bb 2f81 1e3d 2beb 3cbc 5aa3 84bb
00000070: 208a 95bc fab5 7cbc 10bd 293a 8ff0 f03c
00000080: 064d f7bc 5a63 09bd ebf1 8bbc ef86 753b
00000090: b735 1c3b 5c60 69bd c96a 183c d5e6 8bbc
000000a0: d8bc bdbc 1599 39bc 5ea2 40bb a75b f0bb
000000b0: 5131 af3b 3cd6 86bc b986 973c 75fd 74bb
000000c0: 92c8 8c3c 6c3c 32bd 3def cd3b 69d4 8cbc
000000d0: be50 16bd dfaa 9bbb 5db3 61bc f81b 4f3d
000000e0: 35b0 223d 142f fbbc 0c2e 0dbd b773 ad3c
000000f0: 4841 3c3a a20b 6dbc 38ad 0ebd 8fcf 013b
00000100: 1fdf 99bc b834 ccbb 7ed5 b6bc 395a 3cbc
00000110: c78a 1ebd 4d88 31bb 1d1f b4bc bae4 c6bc
00000120: 1efa 1b3b 59ef 0cbc 7fba 79bc 55e6 55bd
00000130: e1fa debc 2c5b d5bb 10a5 c63c 377e f5bc
00000140: e497 10bc 4cf1 1e3b beff b23c 7a8a d53c
00000150: 8d93 39bc b9f2 06bc 2ddc 69bc 3bc1 d13b
00000160: e5c5 5dbc 2d3d 873b fe09 433c bdc5 49bc
00000170: 3cb4 3dbc 137b 13b8 63af b63c ebfb f9bc
00000180: ee33 4ebc fab0 983c 69dc bc3c 91b8 92b8
00000190: 96e7 18bd 31c7 823c f16b 083d 4288 0fbc
000001a0: 1cf3 06bd c338 e63c 433f 03bc 833e 52bd
000001b0: 88fb 503c 3ca5 9b3c 02e3 87b9 eb32 0e3b
000001c0: b894 433d 516f 91bc 8dc2 cebc b84a 91bc
000001d0: 0c4c 0c3c 522e 12bd df82 02bd dfba 6dbc
000001e0: 6dd2 aebc cb38 bbbc d875 c3bc 77c2 d43b
000001f0: b730 5fbc 9e5d 20bc 44d6 44bd e123 093c
00000200: c7a9 4bbc b054 8dba 8776 403c aa49 1cbd
00000210: 38d4 98bc e4e5 20bd 7fa9 c4bc 7a78 7abc
00000220: b763 09bc 22d1 2dbd b13f 933b 7ad9 c63c
00000230: 25fe 00bd 9400 0a3c ab19 8dbb 4243 f43c
00000240: c06e 353b 9e84 85bc 7830 48bd 1265 be3c
00000250: 2548 5cbd 2074 65bc 9a32 dcbc 8d7e 07bd
00000260: af84 323b b4a7 863b 5e21 57bd 7006 4fbc
00000270: b2d4 96bb d820 743c 342f 153c ac48 1e3d
00000280: fc6f cfbb 5f83 38bd 8d30 98bc 4a63 04bc
00000290: d7af 483c e0a6 3eba 0acc 1dbb 2196 babc
000002a0: 5cf5 11bc ad33 11bc 188a c13b 286a 3dbd
000002b0: 9935 a9bc f910 7dbd e6a1 f8bc 0f3c a4bc
000002c0: 92b5 c53c cdcf 01bd c7bb 073b 9fca 10bc
000002d0: 48ad a6bc 8e31 733c 742f a6bc da45 b3bc
000002e0: 76b1 473d 3cb2 99bb 7bcc c03c 01c9 73bc
000002f0: 777f 53bd 8e63 8139 04d3 debc da21 5bbc
00000300: 5576 bf3c 5acf be3b 9c9f 0c3d 93a6 603b
00000310: c7dd 01bd 7dbb d83c 2c20 05bc 2db9 123d
00000320: cd9a b7bb e3a5 57bd 97d7 b0bc 7b31 423b
00000330: 9b6b 87bb f02d 7bbc dcb4 afba 7b92 18bd
00000340: 8739 523c 67ac c5bc 52c6 d83c d7b5 f2bc
00000350: 07ea 60bc f320 43bd 2314 fabb 738b 903c
00000360: 1456 dd3c 6841 60bd 90a8 05bc f7f4 8f3b
00000370: ff0c 8bbc f02d 13bd fd00 a4bb 026a 92bc
00000380: 26d0 a13c e9fd 9dbc 25ba 063d c396 48bd
00000390: 44c9 8e3c 6711 41bd c773 a3bb 744e 073c
000003a0: 72b0 1fbd 376b c63c 0a3b d2bc 79f7 1b3d
000003b0: 3859 3f3d 9587 eabc b343 13bd 9332 27ba
000003c0: 09aa 60bc 7ac8 e7bb 5357 a33b 1c9a 9bbc
000003d0: 9386 4b3c 8189 64bc b07f c8bc 13b7 87bc
000003e0: b610 c8bc 39e3 063c 35f3 edbc c72f 8ebc
000003f0: de21 69bc 7bde abbb 5284 1f3d 53e5 57bc
-0.0008719721 0.059577376 0.015665352 -0.01543335 -0.02208739 0.0019942783 2.4839183e-05 0.0020473085
-0.0141895665 0.021196146 0.009982761 0.05346871 0.013185774 -0.014284662 -0.0049114823 0.039665032
-0.0044600093 -0.040734522 0.049082898 -0.010745533 -0.00418804 0.06647231 -0.0026046566 -0.023694748
-0.0049935067 0.038697418 -0.011530678 -0.0040477933 -0.01825434 -0.015424246 0.0006475011 0.029411582
-0.030188095 -0.033542015 -0.017083129 0.003746446 0.0023835727 -0.05697666 0.009302803 -0.017077843
-0.023161337 -0.0113280015 -0.0029393653 -0.0073351446 0.005346455 -0.016459577 0.018496858 -0.0037382517
0.017185483 -0.043514654 0.006284623 -0.017191129 -0.036698096 -0.004750594 -0.013775674 0.050563782
0.039718825 -0.030662097 -0.03446774 0.021173341 0.00071813585 -0.0144681055 -0.034833163 0.0019807552
-0.01878315 -0.0062318705 -0.022318598 -0.01149612 -0.038706567 -0.0027089298 -0.021987492 -0.024278987
0.0023800205 -0.008601987 -0.015242218 -0.052221615 -0.027219238 -0.0065111127 0.02424863 -0.02996741
-0.008825276 0.002425271 0.021850463 0.026067007 -0.011326683 -0.0082365805 -0.014273685 0.0064012087
-0.013535951 0.004127166 0.011904238 -0.012315211 -0.011578616 -3.5162153e-05 0.022300428 -0.030515632
-0.012585623 0.018639077 0.023054319 -6.996201e-05 -0.037330233 0.015964122 0.033306066 -0.008760514
-0.03294669 0.028103238 -0.008010688 -0.051329147 0.012755282 0.018999688 -0.0002591834 0.002169783
0.04774925 -0.017753275 -0.025239253 -0.017735824 0.008563053 -0.035688706 -0.03186309 -0.014509886
-0.021340573 -0.02285423 -0.023859903 0.0064929086 -0.013622454 -0.009787945 -0.048055902 0.008370371
-0.012430615 -0.0010782685 0.011747009 -0.03815619 -0.018655881 -0.03928174 -0.024006603 -0.015287513
-0.00838559 -0.042435773 0.0044936766 0.024273623 -0.03149237 0.008422989 -0.0043060384 0.029817227
0.002768442 -0.016298588 -0.04887435 0.023241553 -0.05377974 -0.014004737 -0.026879597 -0.033079673
0.002723973 0.0041093472 -0.052522056 -0.012635812 -0.004602992 0.014900409 0.009105492 0.038643524
-0.0063304882 -0.04504716 -0.018577838 -0.008080313 0.012248955 -0.0007272791 -0.0024077916 -0.022776665
-0.008908596 -0.008862418 0.0059063546 -0.046243817 -0.02065544 -0.061783765 -0.030350637 -0.02004817
0.024134431 -0.031692315 0.002071129 -0.008837371 -0.020346299 0.014843358 -0.0202863 -0.021883894
0.048753224 -0.0046904366 0.023535004 -0.014879466 -0.05163523 0.0002467897 -0.02720023 -0.01337477
0.023371855 0.005823058 0.034331903 0.0034278973 -0.031705644 0.026456589 -0.008125346 0.03582113
-0.0056031705 -0.052648436 -0.021587176 0.0029631543 -0.0041327006 -0.015330777 -0.0013405341 -0.03724907
0.012831098 -0.02413006 0.026461754 -0.029627724 -0.0137276715 -0.047638845 -0.007631795 0.01764462
0.027018584 -0.054749876 -0.008157864 0.0043932158 -0.01697397 -0.03593248 -0.0050050006 -0.017872814
0.019752573 -0.019286113 0.032892365 -0.048971903 0.017429955 -0.047135737 -0.004988167 0.008258451
-0.03898663 0.024221046 -0.025662918 0.038077805 0.046715945 -0.028629104 -0.035953235 -0.00063780806
-0.013712415 -0.007073459 0.004984775 -0.018994384 0.012422222 -0.013948799 -0.024474949 -0.016566789
-0.02442203 0.008232885 -0.029046634 -0.017356766 -0.014229266 -0.0052450276 0.03894455 -0.013177234

encoder.enc_layers.4.layers.0.0.bias f4 [20]
00000000: cfeb 1e3c 9a2b 53bc 4cda 193b faa8 943c
00000010: 15bf e23b 36f2 c73b 5b38 4a3c e3d2 923c
00000020: 9a62 a83b fe74 423c 17a2 953b 5be0 33bc
00000030: 602d 00bc 1a37 febb b041 a9bb 9bc1 ea3b
00000040: a697 1bbc 3e3c 3bba aa63 6cbb 9d87 743c
0.009699776 -0.012888813 0.0023476062 0.01814698 0.0069197514 0.006101872 0.012342538 0.017922824
0.0051387073 0.011868713 0.0045664418 -0.0109787835 -0.007823318 -0.0077580335 -0.0051653013 0.007164193
-0.009496605 -0.00071424607 -0.0036070147 0.014924911

encoder.enc_layers.4.layers.0.1.weight f4 [20]
00000000: 35b4 b83d 5c72 c73d 0e6a af3d f804 bd3d
00000010: ecc9 a33d 7e0e ce3d c58c cf3d ea62 cb3d
00000020: 00ad cb3d 681b cc3d cb39 bf3d 6928 cb3d
00000030: cc17 c23d b88b a23d 8e88 c73d c47d db3d
00000040: cc9e e53d ecbe 033e 9eb2 e73d 13cd aa3d
0.09018747 0.09738609 0.0856515 0.09229463 0.07997498 0.10061358 0.101342715 0.09930976
0.099451065 0.09966165 0.09337195 0.09919817 0.09477195 0.079368055 0.097428426 0.10717347
0.11211929 0.128658 0.113133654 0.08339896

encoder.enc_layers.4.layers.0.1.bias f4 [20]
00000000: 744e a8bc d463 25bd fe79 8bbc 3807 bc3b
00000010: 0fbc 8eba 5920 27bd 68a2 3abb e954 173c
00000020: 3135 103c a923 2fbc 5665 80bb d319 8cbc
00000030: ace1 8fb9 3e03 46bb ea47 80b8 c40f 24bd
00000040: c62d 6cba faed 3ebd 3a81 823a 9a2c 12bc
-0.020545222 -0.040378407 -0.017025944 0.005738165 -0.0010889786 -0.040802334 -0.002847815 0.009236553
0.008801744 -0.010689654 -0.00391833 -0.017102158 -0.00027443224 -0.0030214335 -6.116911e-05 -0.040054098
-0.00090095063 -0.04661367 0.0009956725 -0.008921767

encoder.enc_layers.4.layers.0.1.running_mean f4 [20]
00000000: 76f5 533c 2002 87bc b246 5b3a 8111 f03b
00000010: 43da f63b 8d0a 063b 842a 1f3b 94dc 543c
00000020: 1639 9bbb cbf9 563c b751 40bb 1805 5abc
00000030: e13a 67bc f123 03bc 0686 19bc 8a95 9a3b
00000040: cbb1 89bc 70b3 17bb be1a 18bb 87af 903c
0.01293694 -0.016480505 0.00083647214 0.0073263054 0.007533343 0.0020453066 0.0024286816 0.012992043
-0.00473703 0.013121079 -0.002934558 -0.0133068785 -0.014113159 -0.008004175 -0.009370333 0.0047175335
-0.016808411 -0.0023147725 -0.00232093 0.017661823

encoder.enc_layers.4.layers.0.1.running_var f4 [20]
00000000: 4045 0038 85a5 1a38 b620 e637 56eb df37
00000010: b7d4 9737 1209 fc37 f577 5a38 65a9 2a38
00000020: 845f a938 6910 e937 b81c 8038 35c4 3138
00000030: 38ed b937 1906 0a38 473c 0638 5bc7 8438
00000040: 9f57 9938 204f 1339 3226 c238 aa34 0738
3.0582072e-05 3.6870613e-05 2.7433369e-05 2.6693258e-05 1.8099656e-05 3.0044965e-05 5.208697e-05 4.068892e-05
8.076339e-05 2.7783406e-05 6.108865e-05 4.238282e-05 2.2164182e-05 3.2907443e-05 3.2004227e-05 6.331383e-05
7.311929e-05 0.00014048489 9.257755e-05 3.2235555e-05

encoder.enc_layers.4.layers.1.0.weight f4 [20, 20, 1, 1]
00000000: 04a6 053b bc4a 7a3c 6f12 e7bc bd0e 0dbc
00000010: 6909 34bc 1739 9b3c f72e f8bc 8784 d8bc
00000020: dd59 7ebc dafc e3bc e2bf 33b9 adcf 85bc
00000030: 3a15 91bb 8b08 ebbb 8182 28bc ada2 053d
00000040: 2b46 a9bc 76e1 913b 7220 f8bc 0413 85bb
00000050: 182b 1eba 7fa3 c4bb dc87 13bc 9cb8 963c
00000060: 168a 953c 47fd 523b 0622 5fbc 1b11 173d
00000070: 9c71 d039 fbc5 0e3c aa1a 85bc 3771 17bb
00000080: 0e51 913b 6ee3 d5bb 3263 bbbb 5ecd ea39
00000090: 3110 82bc 27f0 81bc 9900 073d 3a7f 23bc
000000a0: d3f8 283d 4a1b 4d3d 958f 42bc 65f6 e6bc
000000b0: 6033 6fbc 9489 573d 585b 05bd 1caa f3bc
000000c0: 5bb0 42bd b887 e0bc a5da 19bd 4625 3ebd
000000d0: d6fd 30bd cc94 c9bc c203 f4bc 7b1a f6bb
000000e0: 4c4e 2fbd 5ae3 7f3d 04f2 3cbd 6a25 593d
000000f0: bf3b b33b d5ab 7dba 7584 b1bc f794 733c
00000100: 0bc0 0f3c d797 07bb ed8c 39bb feb3 5f3c
00000110: 47b4 bfbb b088 0bbc 2ed9 033c 6c3a 07b8
00000120: 729f 343c 00b1 fb3b 2c28 c93c 75d0 9f3b
00000130: eb88 2bbc 1cf4 3c3b a6f7 fb3c 3cbe 643c
00000140: f33b 2a3b d9f6 893b 8168 453d e36f c7bc
00000150: 717d 97bc 857b 073c e9a8 8fbb 1ba8 e1bb
00000160: d795 da3b bf06 e53c 9e6f 0b3d 213a 2c3d
00000170: 8f72 babb ad20 9dbb f28a 02bc fd7b 7e3c
00000180: ad46 0e3d d746 0a3b a99e a83c fe91 c1b9
00000190: 27cb 143d a554 ab3c 2a23 143a 98a9 29ba
000001a0: 1962 233b 6a13 88bc dc2a c7bc e5ae b1bc
000001b0: de01 86bc 9fc3 693c a1de 75bc cab0 06bc
000001c0: 3410 97bc b2fd 9dbc 3594 adba 183e 6d3c
000001d0: 8c54 25bc 948f 903c 2d7e d9bb d068 a3bc
000001e0: b743 3c3c 889a 96bc 8d81 05bc 1c63 833c
000001f0: 0f5b 603b 9627 603b 5661 2b3a 3c8f 803c
00000200: 2ef3 02bc adb0 b93c d59d 43bb 2f46 48bc
00000210: 1013 113c 815c 883b 3a35 1b3c 95fe 11bc
00000220: 9367 45bc 1ced 453c 9142 363c 3483 bdbb
00000230: 7798 cbba eea4 703b 2a26 723c 3041 a33a
00000240: 95b6 10ba 4a7c abbb 8ed0 663c 1a14 033d
00000250: 9db4 913b 7a68 36bc 3ce8 823c d3e9 c5bc
00000260: 47e0 b43c 49ce 3bbc d328 b6ba 8631 39bc
00000270: 8989 acbc fc45 66bc 2354 3f3a 7970 57bc
00000280: 546d 4ebb 0140 8a3a 12da 05bb ee4d 6fbc
00000290: 863e 81bb d688 dd3b f07f 9c3c 9cf5 7d3c
000002a0: 66b4 693c 172a d63c 6f19 303b 5c78 86bc
000002b0: 74f1 cebb e0c1 1bbc 83d7 b93b 9661 3dbc
000002c0: 574e 9fbc 1128 67bc 6b87 a23c cbba 1ab9
000002d0: cd3b 9dbc a406 1abc bb6d c73b bfa0 8ebb
000002e0: 6327 85bc 6e0c 3dbc 0b3d 483c c5fa a5bc
000002f0: f3e8 723c 4548 b63c 0088 953c 8a09 8d3b
00000300: 6658 8d3c f996 5c3c 552c df3c 6436 b3bb
00000310: 6b14 7abc 228a fdbb f7b4 1e3c 600f 9bb9
00000320: 7651 f63c e5a7 743c 5f1d 173c 4320 4bbb
00000330: d32c a93b 0fd1 85bc abf5 54bc d7b4 84bc
00000340: ccd9 5bbc 142b e3bb be6b 8bbc ce47 cf3b
00000350: cef2 91bb a45a 2abc 72e8 403c d7e6 bcbc
00000360: e613 5abc 001c 153d b6c8 45bb 5af0 b5bc
00000370: e98a eebc bc19 513b 4285 413c fdae 94bc
00000380: 7f2b aebc b50c cc3c 33b9 85bc 2c3c 16bc
00000390: 21c2 f4bc 8f83 00bd e8d6 4dbc 5925 85bc
000003a0: 9ecd 39bc 72e3 6abc be02 d2bc d840 973d
000003b0: 051b f8bc ee13 853d 90ac e6bc f21a 593c
000003c0: acdc 113d 94ca 403d cf47 3dbc 4329 bebc
000003d0: a81f 46bc 30cc bfba 85aa 98bc cf10 c3bc
000003e0: 3a38 9ebb 8306 69bc 48c6 04bd 9e54 a9bb
000003f0: ca41 09bc 5038 80bc 24b9 8fbc b53c 053d
0.0020393142 0.015276607 -0.028207032 -0.008609471 -0.010988572 0.018948121 -0.030295832 -0.026430381
-0.015524355 -0.02783053 -0.00017142252 -0.01633438 -0.004427579 -0.0071726493 -0.010285021 0.032625843
-0.020663342 0.004451926 -0.030288909 -0.0040611047 -0.0006033643 -0.0060009356 -0.009004559 0.018398575
0.018254321 0.0032194422 -0.013618952 0.036881547 0.00039757497 0.008714194 -0.016248066 -0.0023108253
0.0044347113 -0.006527356 -0.005718612 0.00044784968 -0.015876861 -0.015861584 0.032959554 -0.009979064
0.041252922 0.050074853 -0.011875053 -0.028193662 -0.014599651 0.05262144 -0.032557815 -0.0297442
-0.047531467 -0.027408466 -0.03756203 -0.046422265 -0.043210827 -0.024607085 -0.029786948 -0.007510481
-0.04279928 0.06247268 -0.04612924 0.053014196 0.005469769 -0.0009676789 -0.021669606 0.014867059
0.008773814 -0.0020689869 -0.0028312758 0.013653753 -0.005850348 -0.008516476 0.008047385 -3.2240918e-05
0.011024343 0.007681012 0.024555288 0.004877145 -0.0104696555 0.0028832024 0.030757736 0.013961371
0.0025975674 0.0042103347 0.048195366 -0.024345344 -0.018492432 0.008269195 -0.0043841493 -0.006886495
0.0066706943 0.027957318 0.034041993 0.042047624 -0.005689926 -0.004795155 -0.007967697 0.015532491
0.03473537 0.0021099353 0.020583468 -0.000369206 0.036326554 0.020914385 0.0005650992 -0.000647211
0.0024930297 -0.01661082 -0.02431243 -0.021689842 -0.016358312 0.014267831 -0.015006692 -0.008220861
-0.018440343 -0.01928601 -0.0013243022 0.014480136 -0.010090958 0.017646588 -0.006637356 -0.01994744
0.011490754 -0.018384233 -0.008148563 0.01603847 0.0034233963 0.0034203283 0.00065376365 0.0156933
-0.007992549 0.022667253 -0.0029848714 -0.012223764 0.0088546425 0.004161418 0.009473139 -0.008910795
-0.01204862 0.012080457 0.011124269 -0.005783463 -0.0015533109 0.00367194 0.014779607 0.001245534
-0.0005520371 -0.0052333223 0.014087809 0.032001592 0.0044465796 -0.011133308 0.015979879 -0.024159348
0.0220796 -0.011462756 -0.0013897665 -0.011303311 -0.021061676 -0.0140547715 0.0007298609 -0.013149374
-0.003149827 0.0010547639 -0.002042417 -0.014605982 -0.003944221 0.006760697 0.019103974 0.015500452
0.014264202 0.026143117 0.0026870628 -0.016414814 -0.0063154045 -0.009506673 0.005671443 -0.011558911
-0.019446535 -0.014108674 0.019839963 -0.0001475617 -0.019193554 -0.009400997 0.006086079 -0.0043526585
-0.016254133 -0.011538608 0.012221585 -0.020261178 0.014826047 0.022251258 0.018253326 0.0043041157
0.017254066 0.013463729 0.027242819 -0.0054691304 -0.015263657 -0.007737414 0.0096867 -0.0002957536
0.03006814 0.014932607 0.009223311 -0.0030994571 0.005162814 -0.016335038 -0.012998025 -0.016199512
-0.013418626 -0.0069326255 -0.017019149 0.0063256985 -0.0044539934 -0.010397587 0.011774169 -0.023059292
-0.013310408 0.036403656 -0.0030179447 -0.022209335 -0.029118972 0.0031906208 0.011811556 -0.018149847
-0.021260975 0.024908403 -0.016323661 -0.0091696195 -0.029877724 -0.031375464 -0.012563445 -0.01625316
-0.011340527 -0.014336454 -0.025636073 0.07385415 -0.030286321 0.06497942 -0.028158456 0.013251053
0.03561084 0.047068194 -0.011552765 -0.023213034 -0.012092508 -0.0014632996 -0.018635998 -0.023811726
-0.00482848 -0.014222744 -0.03241566 -0.005167558 -0.008377502 -0.015651852 -0.017544337 0.032528598

encoder.enc_layers.4.layers.1.0.bias f4 [20]
00000000: 7b1b fd3a be8a 08bc ad47 73bc 8875 963b
00000010: 24c9 783c 2de8 62bb 4cff 6abc 259b 383b
00000020: 501b 993c 7a70 7fbc c52d 0cbc 485d bc3b
00000030: e327 1538 15e3 8d3b 066b bcbb acda 1a3c
00000040: 1532 3f3b dc8c 11bc fa20 623c 4fae b33b
0.0019310558 -0.00833386 -0.014848632 0.0045916475 0.015184674 -0.003462325 -0.014343094 0.0028168645
0.018689781 -0.015590781 -0.008555834 0.0057484247 3.5561516e-05 0.004330049 -0.005750063 0.0094515495
0.0029174138 -0.008883681 0.013801808 0.0054834257

encoder.enc_layers.4.layers.1.1.weight f4 [20]
00000000: f576 de3d 6fd5 e83d f85d 443e 3551 ca3d
00000010: 6121 fb3d 9cb9 e63d 3b81 c03d 51c6 c23d
00000020: 1ae2 bc3d a3bc c63d 001c ce3d b173 1b3e
00000030: 4471 ef3d 8431 b73d b8f7 ad3d 4dfb c23d
00000040: 2e19 bd3d 3375 ba3d d5c2 e53d dc30 083e
0.10862533 0.11368834 0.19176471 0.0987877 0.12262226 0.11265871 0.09399649 0.09510482
0.09222813 0.09703948 0.10063934 0.15180852 0.116915256 0.08944991 0.08494514 0.09520588
0.09233318 0.09104385 0.11218802 0.13299888

encoder.enc_layers.4.layers.1.1.bias f4 [20]
00000000: 05a4 103c 3fd5 923c 2a1d cd3c b743 173c
00000010: d5f8 daba 8938 8d3b a1ad 1d3c a676 d33b
00000020: 65cc a73b 2804 0e3c af80 99ba 19fd 903c
00000030: df00 2c3c e541 54ba be8b b5b9 b64d 263c
00000040: 2ba8 7f3b da8a e43b 08e5 a939 b7b7 93bb
0.008828168 0.01792395 0.02503832 0.009232453 -0.0016706238 0.004309718 0.009623916 0.006453353
0.0051208013 0.008667983 -0.0011711324 0.017698811 0.010498255 -0.0008096977 -0.00034627126 0.010150364
0.0039010148 0.00697456 0.00032404833 -0.0045079845

encoder.enc_layers.4.layers.1.1.running_mean f4 [20]
00000000: ed82 8bbb 5227 e9bb 30fb cbbc 21ea fa3b
00000010: 908e a03c f84c d8bb c5d2 53bc e187 503b
00000020: eeb2 9f3c a0b8 65bc 6e68 2fbc 0629 8639
00000030: d6aa adbb 3442 983b 0e99 a3bb de04 403c
00000040: 6eff 023b 7c00 c9bb a528 673c d24d 553b
-0.004257551 -0.007115283 -0.024900049 0.007657305 0.01959923 -0.0066009723 -0.012928669 0.0031819271
0.0194945 -0.014021069 -0.01070605 0.00025589037 -0.0052999062 0.004646564 -0.004992611 0.01171991
0.0019988674 -0.006134091 0.0141088115 0.0032547605

encoder.enc_layers.4.layers.1.1.running_var f4 [20]
00000000: f573 9137 efd6 ce37 2c6d a338 e5c9 6e37
00000010: a9dd 0a38 d73f 5637 3deb 2437 1326 ff36
00000020: fccc ec36 7e7a 1437 d88c 1137 784d 3038
00000030: bf6d b637 fdc6 8536 d1c6 b536 f6ad ae37
00000040: eaad 8837 cfc2 ac36 504a 3e37 fd64 d537
1.7339344e-05 2.46572e-05 7.7927805e-05 1.4232913e-05 3.31082e-05 1.2770258e-05 9.829932e-06 7.6040246e-06
7.0572114e-06 8.850007e-06 8.675466e-06 4.203382e-05 2.1747195e-05 3.986874e-06 5.4173656e-06 2.0823423e-05
1.6293448e-05 5.148678e-06 1.1342185e-05 2.5438605e-05
